RBCNN/sbr_0/model_weights.pth (torch, 79179 bytes, 6 tensors)

conv1.w_mu f4 [64, 3, 7, 7]
000000 37 7b fe 38 a0 e3 26 3e ce ff 71 3d 3c b6 3d bd
       0.000121346144 0.1629777 0.059081845 -0.04631637
000010 32 fb a5 3c 6c 4b 69 3b fa 3c 5e 3d dd 4d 8e 3d
       0.02026138 0.0035597933 0.05425737 0.06948445
000020 3d 2c 37 3e 89 61 db bd 74 13 38 3d 7f 0d 8c 3d
       0.1788797 -0.10711963 0.044940427 0.06838512
000030 bb 4a fa bd 9b c9 00 3d c7 08 1d bb 8e bb 9a bd
       -0.12221285 0.031442266 -0.002396153 -0.075553045
000040 45 c2 2c 3e 1b a7 48 be d7 11 0f bc fb d4 d7 bd
       0.16870983 -0.19594996 -0.008732281 -0.1053867
000050 9b da d8 3d 38 13 27 be dd 9e eb bd 57 95 ea 3d
       0.10588571 -0.16315925 -0.1150491 0.114542656
000060 0b 08 23 be ca fd 0e 3d 73 a1 f1 3c e4 9d 10 3e
       -0.15921037 0.03491 0.02949593 0.1412273
000070 a5 42 ce 3d 80 67 3a 3e f1 99 4a 3e c0 96 de 3d
       0.10071305 0.18203545 0.19785286 0.10868597
000080 33 ea 29 be 0f 40 26 be 82 27 7b 3e f5 04 05 bd
       -0.16593246 -0.16235374 0.2452679 -0.03247543
000090 b6 c8 29 be 8a 5e 89 3e 37 f9 05 3e bf c0 3c be
       -0.16580471 0.2682994 0.13083349 -0.18432902
0000a0 16 e1 d3 bc d1 56 06 be 7c f7 28 3e 2a cb 02 be
       -0.025864165 -0.13119055 0.16500658 -0.12772813
0000b0 4f 42 39 3c 44 43 f8 3c 78 2b 8b bd 47 3b 8e 3d
       0.011307313 0.030305512 -0.067954004 0.069449
0000c0 61 3a fa bd 71 d8 00 bb 52 9d 11 3e 8e 5b ed 3d
       -0.12218166 -0.001966026 0.14220169 0.11589728
0000d0 d2 cc b7 bd ce 6d 0a be 39 3b 86 3d a9 ba b2 bd
       -0.08974613 -0.1351845 0.065542646 -0.08727009
0000e0 a8 6a 3b be 24 cc 2a be e4 8e 03 3e fa 73 6f bd
       -0.18302405 -0.16679436 0.12847477 -0.058460213
0000f0 02 35 9a bb b8 54 4d 3b 05 8a fc bc f2 3a d8 3d
       -0.004706026 0.0031331014 -0.030827532 0.10558118
000100 a8 7e 7d 3c 3d 75 34 be 5e 0a a5 bd de 14 fa bd
       0.015472092 -0.17622848 -0.08058618 -0.12211011
000110 6a b1 46 3e 6c 46 9d bb aa 08 5d bd 2a f8 2e bc
       0.19403616 -0.0047996547 -0.05396334 -0.010679284
000120 23 cf ff 3c 74 51 bf bc 28 4d 1f bd 82 59 aa 3c
       0.0312267 -0.02335427 -0.03889194 0.020794634
000130 0c e5 d3 bd 66 5b 3f bd ff f3 09 bd db a9 1d 3d
       -0.103464216 -0.046718024 -0.03367996 0.038492065
000140 d6 70 c9 bd 2e 88 e0 3d 59 14 8b bc 5a 5d 96 38
       -0.09835975 0.10963474 -0.016977476 7.1699455e-05
000150 37 18 97 3d 6c 1f b0 bd 8a 9b 7f bd 2d e6 19 3d
       0.073776655 -0.08599743 -0.062404193 0.03757303
000160 1c 88 9f 3d 0d 03 a1 bd 3f a4 68 bd 57 1c 19 be
       0.07789633 -0.0786191 -0.056797262 -0.14952217
000170 b0 bf ae 3d 59 fc 51 bc ed ab 8e bc d0 0c cc bd
       0.08532655 -0.012816512 -0.017415965 -0.09963381
000180 9b 40 67 be b0 d2 1d be f7 6e 52 bd 12 cc 42 3c
       -0.22583239 -0.15412402 -0.051375356 0.0118894745
000190 20 95 57 bd 52 85 2c 3e 2e d2 89 3c ec f5 9f 3d
       -0.05263245 0.16847733 0.016823854 0.07810578
0001a0 17 22 52 3d 07 d6 58 3c b3 4c b4 bd 50 da 64 be
       0.05130204 0.013234622 -0.08803692 -0.22348905
0001b0 0e 45 a9 3c e1 96 02 3e 0d 41 09 be a4 02 f6 3d
       0.02066281 0.12752868 -0.13403721 0.120122224
0001c0 65 6e dc bd ec af 18 be 3d b0 77 3d 47 ea 0f be
       -0.107632436 -0.14910859 0.06047081 -0.14054213
0001d0 d7 8c 46 be 43 58 81 bd e2 15 18 3d a3 96 6b 3d
       -0.19389664 -0.06315663 0.037130244 0.057516705
0001e0 f4 95 1e be f3 fb 8d 3d 42 88 1c 3d b8 6c 71 bc
       -0.1548689 0.06932821 0.038215883 -0.014735393
0001f0 7a fb 8f bd 7e 64 12 3e 16 d2 8f 3d 73 cd 20 bc
       -0.07030387 0.14296147 0.070224926 -0.009814608
000200 4e 74 90 bd 51 e8 a0 3d e5 32 11 be 87 f3 fe 3c
       -0.07053433 0.07856811 -0.14179571 0.031121982
000210 fe 09 dc 3c 50 5d a7 3d 40 06 09 be d0 cd 43 3d
       0.026860233 0.08172095 -0.1338129 0.0478037
000220 99 b3 6c bd 0f 28 91 bd bd 04 62 3d dc 7b 9e 3d
       -0.057788465 -0.07087719 0.0551803 0.07738468
000230 07 ea 77 3d 0c 4e 2f bd 2f 59 0b be 10 0c 94 bc
       0.06052592 -0.04279904 -0.1360824 -0.018072158
000240 4b 0d db 3d 00 8e ab 3d b9 14 69 bd ef 8b 44 3d
       0.10695895 0.08376694 -0.05690453 0.047985014
000250 f4 ee 9d bd b1 9d 9d 3d 26 cc c6 3c 9a eb 2d 3b
       -0.07711592 0.07696093 0.024267267 0.0026538135
000260 3a 0f 3e 3d f6 4e 9f 3d 4c 48 58 be e0 6a f3 bd
       0.04640124 0.077787325 -0.21121329 -0.11885619
000270 73 20 c4 bd 6d 11 bf 3d 93 cf 46 bc 91 91 cb 3d
       -0.09576502 0.093294956 -0.0121344505 0.09939874
000280 44 f8 63 bc 7a 96 97 bc ce 90 10 3e 7c 1d c1 bc
       -0.013914172 -0.01850437 0.14117739 -0.02357363
000290 5b 40 41 be 23 ac 0e bd c6 0e 26 be 67 ec 15 be
       -0.18872206 -0.03483213 -0.16216573 -0.14640962
0002a0 a8 f9 af 3d 22 24 a6 3d d0 22 f8 3d ed 94 be 39
       0.0859254 0.081123605 0.12116015 0.00036350582
0002b0 43 fe 12 be a8 85 90 3c 73 c1 98 3c 55 67 a4 3d
       -0.14354806 0.017641857 0.018646931 0.080275215
0002c0 46 0f 9c bc bd bb f2 3d 5f 00 44 3e 82 21 e9 bd
       -0.019050252 0.118522145 0.19140767 -0.11383344
0002d0 25 31 0c 3d 6b bd dd 3d c0 f6 69 be 52 86 1f bd
       0.034226555 0.10827144 -0.22848034 -0.038946457
0002e0 7c 03 ff 3d aa 7f 95 3b 65 fb b6 bd ea 41 4f 3d
       0.124518365 0.004562338 -0.089346685 0.05059997
0002f0 10 55 d3 bd 8e d5 ce 3d a9 1c a6 3d 00 76 39 3d
       -0.10318959 0.10099326 0.08110935 0.04527855
000300 c7 86 22 3e 22 fd d2 bd 64 fc 07 be f6 f9 a6 bc
       0.15871726 -0.103021875 -0.13279873 -0.020382863
000310 7c 5b fd 3d e5 88 9e bc 2f 2f e3 3d 9a 35 7f 3c
       0.12370965 -0.019352386 0.11092984 0.015576744
000320 39 ed 0f 3e 2f f4 df 3d 90 25 00 3d 70 7f e7 bc
       0.14055337 0.10935246 0.031285822 -0.02825901
000330 01 da 19 be 90 c2 7f 3d fd f1 cd be 65 72 0e 3e
       -0.15024568 0.06244141 -0.40223685 0.13910826
000340 23 24 ed 3c 68 e0 05 be db 57 94 bd 2f bb 9c bd
       0.028947895 -0.13073885 -0.072433196 -0.0765289
000350 d7 31 e5 bc 0a 0d 8f 3d 16 66 2c be 29 e0 ad bd
       -0.027977867 0.06984909 -0.16835818 -0.08490021
000360 fe 08 16 bb 09 00 cc 3c 49 f2 d9 3d 43 6e 84 3d
       -0.0022893543 0.02490236 0.10641915 0.06466343
000370 fc 55 db bd 58 cf 04 3e a9 cf 5b 3d ee cf 8c 3d
       -0.107097596 0.1296972 0.053664837 0.06875597
000380 81 7f 17 3e b6 5a 79 bd 68 0b b3 bc db cc fe bd
       0.14794733 -0.060877524 -0.021856025 -0.12441417
000390 2b db 02 3d 41 a0 3b be 7a cc 13 bd 61 fb 6a 3d
       0.031947296 -0.18322851 -0.036083676 0.05736864
0003a0 7b b0 49 bd 30 95 5f 3d a5 92 2a 3d 2b 5a 33 3d
       -0.04924057 0.054585636 0.041643757 0.043787163
0003b0 7f ae d1 3b 10 01 10 bd bd cc 10 3e 83 7f 46 bd
       0.0063989754 -0.035157263 0.14140601 -0.04846145
0003c0 36 45 49 3e fb 7f a2 3d a6 06 93 3c fb e5 97 3c
       0.19655308 0.079345666 0.017947506 0.01854228
0003d0 0d bd bf bd 70 ed ef bd 45 2d db bc a9 f8 2b bd
       -0.093622304 -0.117152095 -0.026754985 -0.041985188
0003e0 95 67 09 bd bd 1e 43 3c b9 09 0e be 9b a5 51 3e
       -0.03354605 0.011909184 -0.13870896 0.2047333
0003f0 9d 3e 3a 3d 29 31 eb bc ee af 5f bd 94 91 d1 bb
       0.04546987 -0.028709965 -0.05461114 -0.006395528

conv1.w_rho f4 [64, 3, 7, 7]
000000 66 b2 9f c0 ec 83 a5 c0 88 11 a0 c0 21 02 9e c0
       -4.990527 -5.1723537 -5.00214 -4.93776
000010 15 cc a1 c0 8a 9f a0 c0 53 2a a0 c0 e7 e3 a4 c0
       -5.0561624 -5.019475 -5.0051665 -5.15282
000020 4f 98 a1 c0 14 a8 a1 c0 4a 03 a0 c0 ab e4 a0 c0
       -5.0498424 -5.0517673 -5.0004015 -5.0279136
000030 df cb a4 c0 bb c6 a0 c0 c8 27 9f c0 69 db 9e c0
       -5.1498866 -5.024259 -4.973606 -4.9642835
000040 37 dc a0 c0 30 92 a3 c0 e9 a6 a1 c0 b0 f9 9c c0
       -5.0268817 -5.111595 -5.051625 -4.9054794
000050 77 34 a0 c0 44 38 9a c0 15 7c a2 c0 e0 9f 9e c0
       -5.0064044 -4.8193684 -5.0776467 -4.957016
000060 38 a3 9c c0 0e 95 9f c0 dd 40 a1 c0 92 be a0 c0
       -4.894924 -4.986945 -5.039168 -5.023263
000070 41 44 a1 c0 ca 46 a0 c0 c3 af a5 c0 37 98 a2 c0
       -5.039582 -5.0086412 -5.1777053 -5.081081
000080 58 97 9f c0 41 dc 9c c0 3c 87 9d c0 cf 7f a2 c0
       -4.9872246 -4.9018865 -4.922758 -5.0781016
000090 0d 4e 9e c0 c5 d7 9d c0 c8 32 a4 c0 1c 55 9c c0
       -4.9470277 -4.932589 -5.131199 -4.8853893
0000a0 1f d2 9d c0 ad 24 a0 c0 12 87 a0 c0 8c 1c a0 c0
       -4.9318995 -5.004477 -5.016488 -5.0034847
0000b0 20 e9 9e c0 6e 71 9f c0 06 1c 9c c0 b3 99 a0 c0
       -4.9659576 -4.9825964 -4.878421 -5.018762
0000c0 1f de a3 c0 c2 94 a2 c0 d6 5a a8 c0 6b 63 a4 c0
       -5.1208644 -5.080659 -5.2610884 -5.137136
0000d0 96 67 9e c0 62 33 a0 c0 9a 3e 9f c0 ea 99 9e c0
       -4.950145 -5.0062723 -4.976392 -4.9562883
0000e0 f2 5f 9f c0 a6 ff 9f c0 58 45 9e c0 9d 80 a0 c0
       -4.980462 -4.999957 -4.945965 -5.0157
0000f0 69 64 9d c0 47 17 a0 c0 28 ff 9f c0 f2 0a a0 c0
       -4.918507 -5.0028415 -4.999897 -5.001336
000100 e6 53 9f c0 76 31 9f c0 d9 41 9c c0 38 33 a2 c0
       -4.9789915 -4.9747877 -4.883038 -5.0687523
000110 99 fb 9f c0 cc f4 99 c0 f3 08 9e c0 28 ae a4 c0
       -4.9994626 -4.8111324 -4.9385924 -5.1462593
000120 c6 81 a0 c0 cb 95 9c c0 59 09 99 c0 ad fd 9f c0
       -5.0158415 -4.8932853 -4.782391 -4.9997163
000130 b0 3f 9c c0 70 e3 9c c0 f9 44 9b c0 d2 0c a8 c0
       -4.8827744 -4.9027634 -4.8521695 -5.251565
000140 ff 21 a2 c0 1b de 9f c0 c8 0b a1 c0 c8 f5 a1 c0
       -5.06665 -4.9958625 -5.032688 -5.0612526
000150 ef 27 a0 c0 77 05 a3 c0 22 5c a2 c0 71 eb 9e c0
       -5.0048747 -5.094417 -5.0737467 -4.9662404
000160 6a 0d a3 c0 73 21 9f c0 e5 c9 9b c0 b0 9b a3 c0
       -5.0953875 -4.972833 -4.8683953 -5.112755
000170 63 66 9c c0 3f 39 a3 c0 c0 c3 9c c0 bb 0b 9f c0
       -4.8874984 -5.100738 -4.8988953 -4.970182
000180 f5 cb 9f c0 03 6f 9d c0 75 a6 a1 c0 4f e9 a1 c0
       -4.993647 -4.919801 -5.0515695 -5.05973
000190 2d 4d a5 c0 da af a4 c0 04 e0 9f c0 d1 a4 98 c0
       -5.165671 -5.1464663 -4.9960957 -4.770119
0001a0 a2 33 9d c0 36 d5 a3 c0 03 9a a1 c0 6d a6 9f c0
       -4.912553 -5.1197767 -5.0500503 -4.9890656
0001b0 cf 31 a0 c0 71 9a 9d c0 35 f3 9e c0 04 a7 a3 c0
       -5.00608 -4.9251027 -4.9671884 -5.1141376
0001c0 5f 95 9e c0 8f 38 9d c0 f2 4e 9e c0 cb f5 9e c0
       -4.955734 -4.913154 -4.947137 -4.967504
0001d0 b4 04 9f c0 89 77 9f c0 a0 a4 a1 c0 01 a1 9b c0
       -4.969324 -4.9833417 -5.051346 -4.863404
0001e0 e7 07 9e c0 33 1c a1 c0 4f b3 9e c0 c8 43 a1 c0
       -4.9384646 -5.0346923 -4.9593883 -5.039524
0001f0 d8 2d 9b c0 22 fb 9e c0 1c 0d 9f c0 ee d5 a6 c0
       -4.849346 -4.968156 -4.9703503 -5.2136145
000200 0f 6f 9e c0 d3 a5 9d c0 de 76 a0 c0 50 69 a3 c0
       -4.951057 -4.926492 -5.01451 -5.1066055
000210 2c 38 a0 c0 21 b4 9e c0 bb cf 9e c0 09 97 ab c0
       -5.006857 -4.9594884 -4.9628577 -5.362187
000220 93 cb 9f c0 fa 45 9a c0 87 02 a1 c0 5d 9a a3 c0
       -4.9936004 -4.821042 -5.0315585 -5.112593
000230 96 0e 9e c0 4c ee 9c c0 2f c9 a0 c0 d5 0e 9e c0
       -4.9392805 -4.904089 -5.0245585 -4.9393106
000240 b6 e3 a0 c0 81 f5 9f c0 e1 38 9f c0 3c e3 a2 c0
       -5.0277967 -4.9987187 -4.975693 -5.0902386
000250 28 b6 a0 c0 a1 7d 9f c0 83 0a 9f c0 ba 51 9b c0
       -5.022236 -4.9840856 -4.970033 -4.8537264
000260 bd ea 9f c0 28 6e 9b c0 5c 80 9f c0 ae ea 9f c0
       -4.9974046 -4.857197 -4.984419 -4.9973974
000270 1a 67 a1 c0 cd 80 a1 c0 50 fd a1 c0 02 a9 a1 c0
       -5.0438356 -5.0469728 -5.062172 -5.051881
000280 8f a0 a0 c0 6a f9 9e c0 e7 78 9f c0 b7 12 9d c0
       -5.0195994 -4.967946 -4.9835086 -4.9085345
000290 a2 e9 9d c0 6f 45 9e c0 82 51 9f c0 96 f0 9e c0
       -4.9347696 -4.945976 -4.9786997 -4.9668684
0002a0 85 23 9d c0 94 4a a5 c0 65 8c 9e c0 0a e7 a1 c0
       -4.910586 -5.165354 -4.954638 -5.059453
0002b0 d2 47 9a c0 e4 13 9f c0 df 1b a2 c0 b4 c4 9e c0
       -4.821267 -4.971178 -5.065902 -4.9615116
0002c0 a7 38 9f c0 a3 52 9f c0 d7 af 96 c0 f4 62 9b c0
       -4.9756656 -4.9788375 -4.708965 -4.8558292
0002d0 8b 6c 9d c0 91 54 97 c0 3c 94 a0 c0 32 7d a0 c0
       -4.9195 -4.729073 -5.018095 -5.0152826
0002e0 dd d0 9e c0 f9 02 a3 c0 89 ce a5 c0 93 f7 9b c0
       -4.962996 -5.094113 -5.181462 -4.8739715
0002f0 c4 45 9b c0 72 1a a5 c0 59 1b 9e c0 67 d5 a2 c0
       -4.8522663 -5.159478 -4.9408383 -5.08855
000300 9a 17 9f c0 2b b9 a1 c0 14 a1 a1 c0 6f de a2 c0
       -4.971631 -5.0538535 -5.050913 -5.0896525
000310 4d 25 99 c0 f1 44 9d c0 d7 ea 9b c0 96 e0 9d c0
       -4.7858033 -4.9146657 -4.872417 -4.9336653
000320 6e dc a1 c0 a8 41 a1 c0 c8 61 a0 c0 3e cb a0 c0
       -5.058158 -5.0392647 -5.011936 -5.02481
000330 4d 2a a0 c0 fc 7e a2 c0 e1 4d a3 c0 9b 31 a2 c0
       -5.0051637 -5.078001 -5.1032567 -5.0685554
000340 8f 77 9f c0 97 7e 9f c0 39 6b a0 c0 ea 17 9c c0
       -4.9833446 -4.984203 -5.0130887 -4.877919
000350 f3 95 9e c0 17 69 a1 c0 c7 3e a5 c0 8e cf 9d c0
       -4.9558043 -5.0440784 -5.1639132 -4.9315863
000360 42 d7 9d c0 30 5d a2 c0 dc de 9d c0 c6 95 a2 c0
       -4.9325266 -5.0738754 -4.9334545 -5.080783
000370 04 d0 a5 c0 0e ce a3 c0 f5 b1 a1 c0 ad ba 9c c0
       -5.1816425 -5.118903 -5.0529733 -4.8977876
000380 ee cb 9f c0 9f 3f 9c c0 71 1f 9d c0 38 39 9d c0
       -4.9936438 -4.8827662 -4.910088 -4.9132347
000390 a3 7d 9f c0 95 65 a3 c0 3b 25 9b c0 2f 8e a2 c0
       -4.9840865 -5.10615 -4.8482947 -5.0798564
0003a0 75 4f a5 c0 51 df a0 c0 d7 b2 9d c0 a5 2e a2 c0
       -5.1659493 -5.0272603 -4.928081 -5.068194
0003b0 a7 91 a2 c0 68 3a a2 c0 71 4d 9a c0 f6 a8 9c c0
       -5.08028 -5.0696297 -4.8219533 -4.895625
0003c0 c0 b0 9c c0 ba 4e 9f c0 f3 59 9e c0 24 1c a4 c0
       -4.896576 -4.97836 -4.94848 -5.128435
0003d0 2d 60 9b c0 a3 72 9f c0 92 26 9f c0 15 1d 9e c0
       -4.85549 -4.9827437 -4.9734583 -4.94105
0003e0 5b 7f 9a c0 74 49 9e c0 28 cb 9b c0 ad 91 9b c0
       -4.8280463 -4.9464664 -4.8685493 -4.8615327
0003f0 80 d6 a0 c0 0c f0 a1 c0 2b 4a a5 c0 85 b8 a0 c0
       -5.026184 -5.0605526 -5.1653037 -5.0225244

conv1.bias_mu f4 [64]
000000 17 67 02 be 8c 8b 49 3e cb 41 11 3e 31 fe 84 3d
       -0.12734638 0.19682139 0.14185254 0.06493796
000010 f2 be 5f 3d b4 dc d8 3d cf ae 11 3c 1d 00 0d 3d
       0.05462546 0.10588971 0.008891775 0.034423936
000020 89 71 14 be fa 16 76 bd 41 3c 26 bd 5c c3 91 bd
       -0.14496435 -0.060080506 -0.040584806 -0.0711734
000030 e9 f6 5b bd b3 b7 ae bd 7b f9 0d 3e d5 ea 0a 3e
       -0.05370227 -0.085311316 0.138647 0.13566144
000040 d7 6d f2 bc f1 5a b3 bd cc 78 c7 3d c0 39 94 3d
       -0.029593391 -0.0875758 0.09739837 0.072375774
000050 3a 07 47 3d fd 98 3a bc d1 5a 78 be 1b f8 61 3b
       0.048590876 -0.011389014 -0.24253394 0.0034480158
000060 33 cc 79 bd 5b 33 c9 bd 27 3e f1 ba 4a 10 c2 3d
       -0.060985755 -0.098242484 -0.0018405364 0.09475763
000070 23 55 bb bb cc 63 88 3c fc 57 13 be d1 18 e2 bd
       -0.005716936 0.01664915 -0.14389032 -0.110398896
000080 3d d9 41 be 65 0a e7 3d cd d3 3a 3d 13 f7 78 3d
       -0.18930526 0.112812795 0.045612145 0.060782503
000090 36 06 f3 3b 50 23 92 3d be 2a 56 3a 0c 3d d7 bd
       0.007416512 0.071356416 0.0008169821 -0.10509691
0000a0 9f e4 eb 3d 31 3b 2e bd ea 40 00 be 63 dd c1 3d
       0.115182154 -0.042536918 -0.12524763 0.09466054
0000b0 06 b5 99 b9 50 4a 1a 3d d4 fa 5a 3c e8 07 28 3d
       -0.00029317307 0.037668526 0.013365466 0.041023165
0000c0 cd 47 a3 3e 13 39 b6 bd b9 36 37 3e 68 ae 56 be
       0.31890717 -0.08897605 0.17891969 -0.20964968
0000d0 b8 c5 13 be 0b d4 f4 3d b3 f1 7a bd 65 5b 1a 3d
       -0.14430892 0.119545065 -0.06126566 0.037684817
0000e0 d9 28 4e 3d c9 a6 6b 3d e0 d0 f4 bd ba 24 f7 bd
       0.050331924 0.057532106 -0.11953902 -0.12067552
0000f0 86 06 27 be 9b 3b 14 3e 9d 6d 0a 3d 49 b3 58 3d
       -0.16311082 0.14475863 0.03379594 0.052905355

conv1.bias_rho f4 [64]
000000 d6 c4 a2 c0 3e 19 a6 c0 1b 5c a2 c0 76 c6 a4 c0
       -5.086528 -5.1905813 -5.0737433 -5.149226
000010 b0 4d a0 c0 73 59 a1 c0 d1 a3 9a c0 7b fd 9b c0
       -5.0094833 -5.042169 -4.832497 -4.8746924
000020 5c 09 a0 c0 d4 d0 a5 c0 ff fc 9b c0 ef fd a1 c0
       -5.0011425 -5.1817417 -4.8746333 -5.0622478
000030 e2 ae a1 c0 4e fb 9a c0 37 7f a3 c0 c8 af a3 c0
       -5.052598 -4.843177 -5.109279 -5.1152077
000040 6f 9d a6 c0 69 6a a3 c0 11 d0 97 c0 47 c5 9e c0
       -5.206718 -5.1067395 -4.7441487 -4.9615817
000050 76 af a7 c0 9e d4 a0 c0 c9 e0 9d c0 12 24 a2 c0
       -5.2401686 -5.0259542 -4.9336896 -5.066903
000060 8b c1 9f c0 17 b0 9c c0 8a f2 9c c0 16 45 9f c0
       -4.992376 -4.8964953 -4.904607 -4.9771833
000070 7f 1e 9d c0 3b f0 a6 c0 87 85 a3 c0 00 3a 9c c0
       -4.9099727 -5.216825 -5.1100497 -4.88208
000080 fc 6b 9d c0 a6 e5 9f c0 bb ce a3 c0 af 6f a2 c0
       -4.9194317 -4.9967833 -5.1189857 -5.0761333
000090 74 d8 a0 c0 12 de a1 c0 d6 78 a1 c0 44 47 a1 c0
       -5.0264225 -5.058358 -5.0460005 -5.0399494
0000a0 0f 1b a4 c0 e3 6a a0 c0 bc 96 9e c0 dc e2 a1 c0
       -5.128303 -5.0130477 -4.9559 -5.058943
0000b0 39 63 9c c0 25 72 9a c0 50 6d a1 c0 b6 8b a3 c0
       -4.887112 -4.8264337 -5.044594 -5.1108046
0000c0 8d f5 9d c0 4c 9d a5 c0 6d 21 a6 c0 94 43 9c c0
       -4.9362245 -5.1754513 -5.1915803 -4.8832493
0000d0 d9 c3 a1 c0 7f bc a1 c0 a7 e4 a1 c0 00 41 a4 c0
       -5.055157 -5.05426 -5.0591617 -5.1329346
0000e0 a7 6b 9b c0 46 23 9f c0 78 2b a3 c0 db 81 a1 c0
       -4.856891 -4.973056 -5.0990562 -5.0471015
0000f0 00 3a 9c c0 40 63 a0 c0 f6 d0 a0 c0 ed a6 9f c0
       -4.88208 -5.0121155 -5.025508 -4.9891267

fc1.w_mu f4 [1, 64]
000000 fe ae cc 3d 93 44 7a 3d 43 4c c0 bd 44 31 ed bd
       0.099943146 0.061100554 -0.09389546 -0.11581662
000010 d5 50 49 3e 98 ca 61 be 92 49 1e be 5d 19 9c ba
       0.19659741 -0.2204994 -0.15457752 -0.0011909414
000020 f3 8a 8f 3d 5f 9b 0b 3d 27 c8 2d 3d 9c 11 d3 bd
       0.07008924 0.03408372 0.04242721 -0.10306093
000030 42 8e f8 bc e7 f7 96 3c 08 37 11 be 4a 53 79 3d
       -0.030341271 0.018428756 -0.14181149 0.060870446
000040 92 f7 13 3d 49 7a c3 bb 24 c3 1c 3e bf b2 c2 bd
       0.036124773 -0.0059655053 0.15308815 -0.09506749
000050 ae b8 f9 3a 9f 68 50 3e c7 92 b6 3d 1a 5f e8 bc
       0.0019052231 0.2035241 0.08914714 -0.02836566
000060 45 e2 83 3b 91 80 1e 3e 5f 5a 34 be 33 df 96 3c
       0.004024776 0.15478732 -0.17612599 0.018416977
000070 1e ef 14 bd 82 c8 b1 bc f7 8c 66 bc d4 6b fb bc
       -0.036360852 -0.021702055 -0.014071695 -0.030691065
000080 d8 8c 1b 3e e6 fd d0 bc e0 25 e7 3c e0 0d a0 3d
       0.15190446 -0.025511693 0.028216302 0.078151464
000090 15 15 17 be 12 a2 fe bd b7 14 84 3c 0c ee 5e 3d
       -0.14754136 -0.12433256 0.016123159 0.054426238
0000a0 33 22 fe bc ef 8c 45 3b de 29 09 3e bc 5c f6 bc
       -0.031022167 0.0030143817 0.13394877 -0.030073516
0000b0 45 cc fd 3d 51 aa c7 bd 5b 50 d1 bd 10 d9 7e 3a
       0.12392477 -0.09749282 -0.10220405 0.0009721676
0000c0 7c 0f 64 3d 38 33 4f 3e 51 e3 ad 3d a7 61 8b bd
       0.05567883 0.20234382 0.08490623 -0.06805735
0000d0 87 7f f5 3d 37 a3 93 bb 7d 22 df bc 06 e2 56 3c
       0.119872145 -0.0045055407 -0.027238125 0.013115412
0000e0 04 aa 91 3c e2 4e 0b 3d 6e d4 df 3c 01 84 3e 3e
       0.017781265 0.034010775 0.027322974 0.18605043
0000f0 ed a3 ff 3c d6 1e db bc 6c 5d be 3c b4 fd 3a bd
       0.031206096 -0.026748102 0.023237906 -0.045652106

fc1.w_rho f4 [1, 64]
000000 97 73 9d c0 9a ea 9e c0 4f ca a1 c0 52 b7 9c c0
       -4.92036 -4.966138 -5.055946 -4.897378
000010 48 36 a2 c0 2a 39 9e c0 a5 d6 9c c0 0a 3e a1 c0
       -5.069126 -4.944478 -4.9012017 -5.038823
000020 89 ad 9e c0 52 00 9f c0 95 1a a0 c0 00 e6 9e c0
       -4.9586835 -4.968789 -5.003245 -4.965576
000030 d4 f2 a0 c0 7c 21 a2 c0 38 a0 9b c0 fc b0 9d c0
       -5.029642 -5.0665874 -4.863308 -4.9278545
000040 db d3 9e c0 56 57 9e c0 a8 74 9f c0 88 02 9a c0
       -4.9633613 -4.948161 -4.9829903 -4.812809
000050 bc c4 9c c0 ab 2d a8 c0 65 ab a4 c0 b7 9f 9d c0
       -4.8990154 -5.2555747 -5.145922 -4.9257464
000060 83 ce a3 c0 93 21 9b c0 c0 31 9c c0 63 d3 9b c0
       -5.118959 -4.8478484 -4.881073 -4.869554
000070 3c 72 a3 c0 4a 25 9e c0 06 33 9f c0 7b 54 9f c0
       -5.1076946 -4.942052 -4.9749784 -4.9790626
000080 a8 85 9e c0 49 a6 a3 c0 e1 f8 9d c0 8f bc a2 c0
       -4.9538155 -5.1140485 -4.9366307 -5.0855174
000090 1a fb 9d c0 83 65 9e c0 d1 f3 99 c0 72 b5 a6 c0
       -4.936902 -4.9498916 -4.8110127 -5.209649
0000a0 ad 34 9e c0 f6 19 9e c0 5f 6a a0 c0 6a 9d 99 c0
       -4.94393 -4.940669 -5.0129848 -4.8004656
0000b0 eb 24 a1 c0 a4 91 a0 c0 da 04 a2 c0 db 54 9b c0
       -5.0357566 -5.0177784 -5.063092 -4.8541083
0000c0 10 48 98 c0 e7 dc 9a c0 9f 44 a4 c0 89 a1 a3 c0
       -4.7587967 -4.8394656 -5.1333766 -5.1134686
0000d0 86 3f 9a c0 54 05 9c c0 71 c5 a1 c0 74 78 9f c0
       -4.8202543 -4.8756504 -5.0553517 -4.9834538
0000e0 2e 59 9d c0 7d 31 a3 c0 80 e2 a1 c0 b4 86 a1 c0
       -4.917136 -5.099791 -5.058899 -5.0476933
0000f0 1c 51 9e c0 f5 19 9e c0 33 0a 9e c0 69 d9 a3 c0
       -4.947401 -4.9406686 -4.938745 -5.1202893
