RBCNN/pbr_0/model_weights.pth (torch, 81624 bytes, 10 tensors)

conv1.w_mu f4 [64, 3, 7, 7]
0.02316882 -0.070391126 -0.15013005 -0.085059434 0.0102180075 -0.10669064 0.20038374 0.024844075
0.054548025 -0.020086635 -0.007200518 -0.053839575 -0.13286078 0.100480765 0.050411943 0.12425439
-0.104818575 0.07461273 0.04654202 0.026052108 -0.007024939 0.004280477 0.042045113 0.059612352
-0.01110164 -0.00043874633 -0.00863002 0.0033378645 0.031207323 -0.022675557 0.02166568 -0.08198844
0.035489675 0.00020578274 0.0908219 -0.036749333 -0.12693757 -0.015561147 0.101964295 -0.0106753195
0.055570144 0.047607318 0.06524816 0.023711238 -0.07013044 0.05246568 0.106070295 -0.011964562
0.116014466 -0.021505307 -0.04668639 -0.15318573 -0.0107273385 0.056080967 -0.013996485 -0.06357707
0.10436497 -0.103983305 -0.0063223345 0.037869215 0.16314623 -0.17915726 0.005482524 0.020384885
0.2035966 -0.11030077 0.19217408 -0.0152706485 -0.010034287 -0.012772546 -0.14856327 -0.021766933
-0.026162025 0.0064934567 -0.26043394 0.028021524 -0.06908422 0.07056318 -0.036989734 -0.16750175
0.018724205 -0.15249121 -0.13914023 -0.23595287 0.15444241 -0.022169273 -0.093085095 -0.017597903
-0.1439007 -0.06689057 0.025716579 0.06384473 -0.10928723 -0.037070733 0.05432015 -0.16559528
0.16428103 -0.07928065 0.08780639 0.07221144 0.027461097 0.0885335 -0.0611446 0.04466174
-0.055814352 -0.045215 -0.012109547 -0.11735931 -0.21237907 0.05079151 -0.058965113 -0.049071804
-0.17129928 0.09458214 0.06168885 0.078396745 -0.15723217 -0.04855821 0.05941437 0.123039104
0.055231232 -0.045460504 -0.117676914 0.023315666 0.25640363 -0.13084711 0.1709265 0.117365554
-0.034271415 0.20656338 -0.013452472 0.025138224 -0.05627071 0.024163593 -0.0016753637 -0.03230062
0.12930194 0.2159386 -0.04214177 0.07214524 0.020029563 0.076627605 0.004946782 -0.08443996
0.118931346 0.018358681 0.09101837 0.009446965 0.061016295 0.07493595 0.016700309 -0.0062953285
0.23418747 -0.10091704 -0.057371944 0.2504944 -0.0019408481 0.13848801 -0.14766125 0.10916653
-0.19063345 0.08204467 -0.047416374 -0.09611775 -0.11097203 0.06832899 -0.25568265 0.070783414
-0.027845921 0.14041527 0.0017609796 -0.15956405 0.02760298 0.0055560796 -0.055138268 0.13401823
0.030679043 0.119765885 -0.2477734 -0.04228373 0.092010394 -0.0542485 0.009562874 -0.047254894
0.05764985 0.049665995 0.065050386 0.024435487 0.09600285 0.050992064 -0.027184514 -0.0061976807
-0.044104956 0.05452665 0.008404908 -0.021405146 0.16773778 -0.072308265 -0.0757946 0.11541633
0.08419641 0.1715133 0.00078176823 0.13418658 0.07189153 -0.08237661 0.0029688952 -0.024579022
0.026913788 0.013547409 0.13399343 0.113262296 -0.013533428 0.047351945 -0.0080931755 0.14068747
-0.008912374 -0.115852185 0.06870786 -0.07708615 -0.08148218 -0.0059665754 -0.03591522 0.16249771
0.18229847 -0.09488965 0.11223569 -0.1111841 0.000800457 0.031939678 -0.05709072 0.06501295
0.103039294 -0.042001795 0.015702818 -0.044848148 0.04256137 -0.009040452 -0.011515767 0.06980129
-0.13620539 0.045858983 -0.18950793 0.05635658 0.14231521 0.030510806 0.0811929 0.012611868
0.12941146 -0.08671163 -0.0123430565 -0.0069429046 0.029895168 -0.046640683 0.025049593 -0.11704498
00000000: 8acc bd3c 3929 90bd b1bb 19be a433 aebd
00000010: 6e69 273c 9f80 dabd 6531 4d3e cd85 cb3c
00000020: c06d 5f3d ba8c a4bc 53f2 ebbb e386 5cbd
00000030: a80c 08be dcc8 cd3d c17c 4e3d 1679 fe3d
00000040: 1fab d6bd 8fce 983d d8a2 3e3d 3b6b d53c
00000050: 7631 e6bb 3e43 8c3b 7f37 2c3d 152c 743d
00000060: a7e3 35bc 8907 e6b9 ed64 0dbc 13c0 5a3b
00000070: 80a6 ff3c 17c2 b9bc 397c b13c 8ee9 a7bd
00000080: 9f5d 113d 62c7 5739 d500 ba3d 7886 16bd
00000090: ecfb 01be 2ef4 7ebc a8d2 d03d 89e7 2ebc
000000a0: 859d 633d e4ff 423d d4a0 853d 123e c23c
000000b0: 8ca0 8fbd 41e6 563d 623b d93d 0307 44bc
000000c0: fe98 ed3d e62b b0bc 3a3a 3fbd b8dc 1cbe
000000d0: b8c1 2fbc 28b5 653d 8351 65bc b234 82bd
000000e0: 4dbd d53d 33f5 d4bd 962b cfbb c01c 1b3d
000000f0: ce0f 273e 0075 37be bfa6 b33b 34fe a63c
00000100: a17b 503e 5fe5 e1bd 48c9 443e be31 7abc
00000110: da66 24bc f143 51bc f820 18be 9150 b2bc
00000120: be51 d6bc 10c7 d43b 9957 85be 658d e53c
00000130: 077c 8dbd 6e83 903d 8c82 17bd 9485 2bbe
00000140: 8163 993c a826 1cbe c77a 0ebe a19d 71be
00000150: 2726 1e3e 569c b5bc 66a3 bebd 7a29 90bc
00000160: b55a 13be ecfd 88bd 93ab d23c 07c1 823d
00000170: fcd1 dfbd 7bd7 17bd ce7e 5e3d cf91 29be
00000180: 4939 283e e55d a2bd d6d3 b33d 97e3 933d
00000190: 18f6 e03c 0d51 b53d c372 7abd 3bef 363d
000001a0: 979d 64bd 5d33 39bd 1f67 46bc 145a f0bd
000001b0: e679 59be c20a 503d 6785 71bd 84ff 48bd
000001c0: 1469 2fbe 48b4 c13d 73ad 7c3d 798e a03d
000001d0: 7801 21be f9e4 46bd 7c5c 733d edfb fb3d
000001e0: 253a 623d cb34 3abd 9800 f1bd 7f00 bf3c
000001f0: 5647 833e c9fc 05be 5b07 2f3e 5a5d f03d
00000200: 2f60 0cbd 5a85 533e c267 5cbc adee cd3c
00000210: 1e7c 66bd baf2 c53c e197 dbba a84d 04bd
00000220: ba67 043e 021f 5d3e d99c 2cbd e2c0 933d
00000230: 0a15 a43c efee 9c3d 9d18 a23b dcee acbd
00000240: 4792 f33d f264 963c d767 ba3d 71c7 1a3c
00000250: 39ec 793d 0578 993d 16cf 883c 0b49 cebb
00000260: d7ce 6f3e 98ad cebd d8fe 6abd cd40 803e
00000270: 0e64 feba cdcf 0d3e 8334 17be b492 df3d
00000280: 6a35 43be 0907 a83d ac37 42bd 62d9 c4bd
00000290: 4e45 e3bd 12f0 8b3d d6e8 82be e5f6 903d
000002a0: 211d e4bc 05c9 0f3e acd0 e63a c264 23be
000002b0: a51f e23c c60f b63b aad8 61bd 133c 093e
000002c0: 9e52 fb3c d147 f53d 4fb8 7dbe b431 2dbd
000002d0: f26f bc3d ad33 5ebd 9aad 1c3c 598e 41bd
000002e0: 4022 6c3d 926e 4b3d 2339 853d ee2c c83c
000002f0: 249d c43d 0edd 503d 0fb2 debc ea15 cbbb
00000300: 66a7 34bd 5657 5f3d bdb4 093c d859 afbc
00000310: 74c3 2b3e 5b16 94bd 333a 9bbd 665f ec3d
00000320: 2b6f ac3d 2fa1 2f3e 94ef 4c3a 3568 093e
00000330: de3b 933d 11b5 a8bd cc91 423b f259 c9bc
00000340: 4e7a dc3c f4f5 5d3c 9335 093e 10f6 e73d
00000350: 50bb 5dbc 1df4 413d 3d99 04bc 6010 103e
00000360: 3505 12bc e943 edbd b5b6 8c3d 58df 9dbd
00000370: 21e0 a6bd 4383 c3bb d61b 13bd cd65 263e
00000380: 73ac 3a3e 8155 c2bd d3db e53d 7db4 e3bd
00000390: c3d5 513a 2ed3 023d f5d7 69bd 8225 853d
000003a0: 4406 d33d 130a 2cbd 32a3 803c b1b2 37bd
000003b0: d554 2e3d 671e 14bc a1ac 3cbc fbf3 8e3d
000003c0: 6d79 0bbe a1d6 3b3d 5e0e 42be 28d6 663d
000003d0: 14bb 113e ccf1 f93c 7748 a63d 02a2 4e3c
000003e0: 7084 043e de95 b1bd 883a 4abc 4e81 e3bb
000003f0: b6e6 f43c 4d0a 3fbd ce34 cd3c 47b5 efbd

conv1.w_rho f4 [64, 3, 7, 7]
-5.004037 -4.88347 -4.882596 -4.822763 -5.039703 -4.9973297 -4.8196926 -4.910275
-4.9550247 -5.0592446 -4.9246087 -4.9414883 -4.896518 -4.96293 -4.9012475 -4.8695354
-4.9639697 -5.003184 -5.048832 -5.034151 -5.073313 -5.08817 -4.9834185 -4.9952245
-4.930233 -5.0479774 -4.9722166 -4.9205484 -5.022358 -5.0323715 -4.9762373 -5.0519643
-4.9133434 -4.9317894 -5.2400126 -4.8247294 -5.001053 -5.039495 -5.0032372 -4.8249707
-5.130806 -4.9911304 -5.0660634 -5.0454507 -5.0020957 -5.0501723 -4.819406 -5.1053457
-5.2268696 -5.1046453 -5.1380706 -4.876961 -5.178683 -5.108119 -5.0018067 -4.885104
-5.1159506 -4.8315206 -4.9224524 -5.0337033 -5.204245 -4.9988594 -4.9620485 -4.8137484
-5.027774 -4.9317293 -4.814887 -5.114664 -4.9711304 -4.893279 -5.033634 -5.1160398
-5.0301986 -4.9707437 -5.233888 -4.8300176 -5.055165 -5.148883 -5.065319 -4.9662967
-4.867643 -5.0602403 -4.922228 -5.1698647 -4.86588 -4.890783 -5.1688557 -5.110505
-5.047367 -4.9857726 -5.2023716 -5.064498 -4.9863963 -5.135914 -5.0353446 -5.031295
-5.0272636 -5.0924726 -5.164129 -4.8980885 -4.93638 -5.065782 -5.05881 -5.092108
-5.002046 -4.887952 -5.0022554 -4.9613795 -4.9562325 -5.113586 -4.932627 -5.0892444
-5.021835 -4.924167 -5.159556 -4.9047656 -5.125665 -5.0293593 -5.075634 -4.931333
-5.06279 -5.080439 -5.0014486 -5.0564985 -5.0453815 -5.0139256 -4.9691916 -4.9090266
-5.1753063 -4.978676 -4.994564 -5.028901 -5.0698295 -4.9169207 -4.967682 -5.115706
-4.924818 -5.1591263 -5.053438 -5.0698853 -4.97301 -4.9907703 -4.9853406 -5.0449004
-5.2546153 -4.98087 -4.894308 -4.898928 -5.0573945 -5.0588593 -5.046601 -4.9169426
-5.2007985 -5.0855594 -5.020721 -4.9763727 -4.966455 -4.8860593 -5.1061864 -4.9735956
-4.790289 -5.073473 -4.9506545 -4.893786 -5.0423365 -5.104746 -5.2045197 -4.9453535
-5.0035896 -4.762937 -5.0873227 -5.1265535 -5.048212 -5.1354384 -5.1318035 -5.031279
-5.1903024 -4.9143 -4.9169097 -4.9400663 -4.9320226 -4.917088 -5.1503844 -5.159997
-4.949451 -5.0076547 -4.8999033 -5.0293627 -4.900263 -4.8555264 -5.052005 -5.19504
-4.92486 -4.9443965 -4.9342985 -5.0384417 -4.9526534 -5.1143847 -4.9653487 -4.9695306
-5.125833 -4.9766173 -4.9858027 -4.960282 -5.0532146 -5.033872 -4.914094 -5.1256585
-4.948058 -4.864011 -4.9062886 -4.9615827 -5.0499544 -5.0158296 -4.9604554 -5.328845
-5.1934776 -5.028753 -5.138176 -5.0676236 -5.0216117 -4.9208107 -4.9126606 -5.2749634
-5.0130625 -4.943279 -4.9221015 -5.0527344 -4.966065 -5.1351633 -4.9772916 -4.9606194
-5.0729427 -5.0605593 -5.014895 -4.994596 -4.908508 -5.1392713 -5.058341 -4.9527354
-5.0892406 -4.9728775 -5.104424 -5.1961083 -5.038105 -4.9885793 -5.156479 -4.975451
-4.946984 -5.0993233 -5.111744 -5.0645847 -4.941354 -5.1569414 -4.847669 -5.117781
00000000: 1221 a0c0 6345 9cc0 3a3e 9cc0 1354 9ac0
00000010: 3f45 a1c0 20ea 9fc0 ec3a 9ac0 f920 9dc0
00000020: 908f 9ec0 55e5 a1c0 6596 9dc0 ac20 9ec0
00000030: 47b0 9cc0 53d0 9ec0 05d7 9cc0 3cd3 9bc0
00000040: d7d8 9ec0 151a a0c0 0890 a1c0 c417 a1c0
00000050: 9558 a2c0 4ad2 a2c0 2a78 9fc0 e1d8 9fc0
00000060: 78c4 9dc0 0889 a1c0 661c 9fc0 2275 9dc0
00000070: 28b7 a0c0 3009 a1c0 563d 9fc0 b1a9 a1c0
00000080: 1c3a 9dc0 38d1 9dc0 2fae a7c0 2f64 9ac0
00000090: a008 a0c0 8b43 a1c0 851a a0c0 2966 9ac0
000000a0: 902f a4c0 57b7 9fc0 311d a2c0 5574 a1c0
000000b0: 2b11 a0c0 039b a1c0 9338 9ac0 fe5e a3c0
000000c0: 8442 a7c0 4159 a3c0 136b a4c0 1110 9cc0
000000d0: c5b7 a5c0 b675 a3c0 cd0e a0c0 c652 9cc0
000000e0: deb5 a3c0 d19b 9ac0 bb84 9dc0 1914 a1c0
000000f0: 2d89 a6c0 a8f6 9fc0 1ac9 9ec0 3a0a 9ac0
00000100: 86e3 a0c0 bad0 9dc0 8e13 9ac0 54ab a3c0
00000110: 8013 9fc0 be95 9cc0 8813 a1c0 99b6 a3c0
00000120: 63f7 a0c0 5510 9fc0 037c a7c0 818f 9ac0
00000130: e9c3 a1c0 a6c3 a4c0 1817 a2c0 e7eb 9ec0
00000140: bbc3 9bc0 7ded a1c0 e482 9dc0 886f a5c0
00000150: 4ab5 9bc0 4b81 9cc0 4467 a5c0 4289 a3c0
00000160: 0884 a1c0 738b 9fc0 d479 a6c0 5e10 a2c0
00000170: 8f90 9fc0 6859 a4c0 8b21 a1c0 5e00 a1c0
00000180: 58df a0c0 89f5 a2c0 8b40 a5c0 24bd 9cc0
00000190: d3f6 9dc0 e31a a2c0 c6e1 a1c0 8cf2 a2c0
000001a0: c310 a0c0 1a6a 9cc0 7a12 a0c0 9fc3 9ec0
000001b0: 7599 9ec0 7fa2 a3c0 15d8 9dc0 17db a2c0
000001c0: dfb2 a0c0 c792 9dc0 151b a5c0 d7f3 9cc0
000001d0: 7305 a4c0 83f0 a0c0 986b a2c0 7bcd 9dc0
000001e0: 6002 a2c0 f592 a2c0 de0b a0c0 d6ce a1c0
000001f0: c473 a1c0 1472 a0c0 9e03 9fc0 bf16 9dc0
00000200: 1c9c a5c0 5051 9fc0 78d3 9fc0 c2ec a0c0
00000210: 0b3c a2c0 6a57 9dc0 40f7 9ec0 ddb3 a3c0
00000220: 1c98 9dc0 9017 a5c0 c4b5 a1c0 803c a2c0
00000230: e622 9fc0 64b4 9fc0 e987 9fc0 d36f a1c0
00000240: cf25 a8c0 4963 9fc0 2c9e 9cc0 05c4 9cc0
00000250: 2dd6 a1c0 2de2 a1c0 c17d a1c0 9857 9dc0
00000260: f16c a6c0 e7bc a2c0 bfa9 a0c0 723e 9fc0
00000270: 33ed 9ec0 995a 9cc0 e165 a3c0 b227 9fc0
00000280: 0c4a 99c0 e459 a2c0 c36b 9ec0 e599 9cc0
00000290: d25a a1c0 145a a3c0 6d8b a6c0 5640 9ec0
000002a0: 681d a0c0 fb69 98c0 59cb a2c0 ba0c a4c0
000002b0: f48a a1c0 8355 a4c0 bc37 a4c0 3d00 a1c0
000002c0: f516 a6c0 f241 9dc0 5357 9dc0 0615 9ec0
000002d0: 21d3 9dc0 c958 9dc0 f3cf a4c0 b21e a5c0
000002e0: e761 9ec0 b53e a0c0 02cc 9cc0 8af0 a0c0
000002f0: f4ce 9cc0 7960 9bc0 06aa a1c0 c53d a6c0
00000300: 7498 9dc0 7f38 9ec0 c6e5 9dc0 ea3a a1c0
00000310: 237c 9ec0 0aa9 a3c0 23e4 9ec0 6506 9fc0
00000320: d306 a4c0 7340 9fc0 b28b 9fc0 a1ba 9ec0
00000330: efb3 a1c0 7b15 a1c0 4240 9dc0 6505 a4c0
00000340: 7e56 9ec0 faa5 9bc0 5100 9dc0 49c5 9ec0
00000350: 3a99 a1c0 ad81 a0c0 0dbc 9ec0 e685 aac0
00000360: f830 a6c0 8beb a0c0 f06b a4c0 f929 a2c0
00000370: 0bb1 a0c0 4877 9dc0 8434 9dc0 80cc a8c0
00000380: 026b a0c0 572f 9ec0 db81 9dc0 00b0 a1c0
00000390: 01ea 9ec0 4253 a4c0 f945 9fc0 65bd 9ec0
000003a0: 8c55 a2c0 1af0 a1c0 057a a0c0 bbd3 9fc0
000003b0: 7f12 9dc0 e974 a4c0 eedd a1c0 cf7c 9ec0
000003c0: 0fdb a2c0 d021 9fc0 7157 a3c0 8546 a6c0
000003d0: 2838 a1c0 71a2 9fc0 e001 a5c0 e536 9fc0
000003e0: b14d 9ec0 a82d a3c0 6893 a3c0 1411 a2c0
000003f0: 921f 9ec0 aa05 a5c0 1b20 9bc0 ddc4 a3c0

conv1.bias_mu f4 [64]
0.057070583 0.08229246 0.031898495 -0.096983425 0.10299694 0.18135564 -0.102757774 0.058316518
-0.0501402 -0.10671704 0.043273132 0.035833787 0.078515925 0.07178193 0.026879176 0.16229893
0.07890284 -0.09424179 0.067630164 -0.04899751 0.23133253 -0.038514435 0.10749638 0.07444156
0.24679534 0.007340692 0.07438763 0.102377705 -0.06726894 0.0543395 0.009195093 0.022145865
-0.16343683 0.13937618 -0.025803408 -0.08595101 -0.06990283 -0.005695481 -0.2134656 -0.046678267
-0.092448704 -0.031606246 0.00068199117 0.012770186 -0.024957826 -0.15287486 -0.06203831 0.0020213237
-0.14121348 -0.009802113 0.14035548 -0.11146211 0.0077708946 -0.14448081 0.051610023 0.17622691
-0.018956538 0.32606032 0.051769774 0.089523315 -0.02831918 -0.24614489 -0.033409305 0.063112624
00000000: d8c2 693d f388 a83d ffa7 023d 3f9f c6bd
00000010: 0ff0 d23d 4bb5 393e ab72 d2bd 4ddd 6e3d
00000020: cf5f 4dbd 778e dabd 2b3f 313d 73c6 123d
00000030: f5cc a03d 6802 933d b831 dc3c b131 263e
00000040: d097 a13d d701 c1bd af81 8a3d 9db1 48bd
00000050: 6fe2 6c3e 50c1 1dbd 1027 dc3d d174 983d
00000060: ebb7 7c3e 308a f03b 8b58 983d 67ab d13d
00000070: 4cc4 89bd 1893 5e3d 04a7 163c 3f6b b53c
00000080: fc5b 27be a1b8 0e3e ab61 d3bc 1507 b0bd
00000090: 3729 8fbd 28a1 babb ba96 5abe b631 3fbd
000000a0: bf55 bdbd 8d75 01bd a7c7 323a 0b3a 513c
000000b0: 5b74 ccbc 3a8b 1cbe e21b 7ebd 2f78 043b
000000c0: 449a 10be 0b99 20bc 59b9 0f3e 3f46 e4bd
000000d0: fda2 fe3b c7f2 13be 0865 533d d474 343e
000000e0: be4a 9bbc 61f1 a63e 8b0c 543d 0058 b73d
000000f0: a0fd e7bc 680d 7cbe 32d8 08bd 3141 813d

conv1.bias_rho f4 [64]
-5.0597987 -4.9877048 -4.869027 -4.9945917 -5.0293217 -5.0306892 -4.804365 -5.0988364
-5.121076 -5.154037 -4.8801136 -5.062275 -5.191958 -4.998343 -4.9649787 -5.1657157
-4.999895 -4.9708257 -5.1611133 -5.12272 -5.1827335 -5.0239124 -5.121149 -5.0430365
-5.0950356 -5.0393143 -4.8170385 -4.994703 -4.972914 -4.9296427 -4.911838 -5.1006064
-5.0927763 -5.019789 -4.9799976 -4.9344134 -5.012005 -4.87894 -5.040197 -4.9049406
-5.057713 -5.0317793 -5.0924187 -4.94487 -4.708911 -5.08788 -5.2056985 -5.02262
-5.060494 -4.8572507 -4.784365 -5.0973644 -5.015088 -5.049169 -4.993086 -5.013897
-5.043219 -4.964552 -4.985907 -4.991914 -4.94203 -4.936869 -5.1548095 -5.0567055
00000000: dfe9 a1c0 479b 9fc0 12cf 9bc0 b2d3 9fc0
00000010: 34f0 a0c0 68fb a0c0 5cbd 99c0 ab29 a3c0
00000020: dbdf a3c0 dfed a4c0 e429 9cc0 28fe a1c0
00000030: 8524 a6c0 6df2 9fc0 1be1 9ec0 8b4d a5c0
00000040: 24ff 9fc0 0111 9fc0 d727 a5c0 52ed a3c0
00000050: f4d8 a5c0 e4c3 a0c0 74e0 a3c0 8e60 a1c0
00000060: 880a a3c0 1042 a1c0 2e25 9ac0 9bd4 9fc0
00000070: 1d22 9fc0 a2bf 9dc0 c72d 9dc0 2b38 a3c0
00000080: 06f8 a2c0 1da2 a0c0 245c 9fc0 b7e6 9dc0
00000090: 5862 a0c0 4720 9cc0 4b49 a1c0 46f5 9cc0
000000a0: c9d8 a1c0 5604 a1c0 18f5 a2c0 603c 9ec0
000000b0: 66af 96c0 eacf a2c0 1595 a6c0 4eb9 a0c0
000000c0: 91ef a1c0 996e 9bc0 8519 99c0 9c1d a3c0
000000d0: 9a7b a0c0 cb92 a1c0 5cc7 9fc0 d871 a0c0
000000e0: 0d62 a1c0 9cdd 9ec0 8d8c 9fc0 c2bd 9fc0
000000f0: 1c25 9ec0 d5fa 9dc0 33f4 a4c0 88d0 a1c0

bn1.weight f4 [64]
1.0018679 0.99948305 0.9982935 1.0006108 1.0010544 0.99996656 1.0005356 0.99962854
1.0001717 0.9980815 0.9996075 0.99953926 1.0000505 0.9993127 0.99915797 1.0011816
1.0016675 1.0002881 0.99874 1.0014489 1.0014001 0.9982291 0.999928 0.99937487
0.99970627 1.002516 1.0007434 1.0008317 0.9995292 1.0013334 1.0008548 1.001288
0.99743026 0.99946 1.0000107 0.99949664 1.0006094 0.9991361 0.9980446 1.0017017
1.0006812 1.0000402 0.9983644 0.9998304 1.000403 0.9994892 0.9982677 1.0001131
0.99846077 0.9995684 0.997962 0.9998961 1.0010552 0.9998801 0.9982907 0.99953324
0.99913836 1.0003397 0.99835926 1.0006037 1.0000321 1.0012654 0.9998725 0.99818
00000000: 353d 803f 1fde 7f3f 2a90 7f3f 0414 803f
00000010: 8d22 803f cffd 7f3f 8d11 803f a8e7 7f3f
00000020: a005 803f 4582 7f3f 47e6 7f3f cee1 7f3f
00000030: a801 803f f5d2 7f3f d1c8 7f3f b826 803f
00000040: a436 803f 7109 803f 6dad 7f3f 7a2f 803f
00000050: e12d 803f f18b 7f3f 48fb 7f3f 08d7 7f3f
00000060: c0ec 7f3f 7252 803f 5c18 803f 411b 803f
00000070: 25e1 7f3f b12b 803f 031c 803f 352a 803f
00000080: 9757 7f3f 9cdc 7f3f 5a00 803f 03df 7f3f
00000090: f813 803f 62c7 7f3f da7f 7f3f c337 803f
000000a0: 5216 803f 5101 803f cf94 7f3f e3f4 7f3f
000000b0: 350d 803f 86de 7f3f 798e 7f3f b503 803f
000000c0: 209b 7f3f b7e3 7f3f 707a 7f3f 31f9 7f3f
000000d0: 9422 803f 24f8 7f3f fb8f 7f3f 69e1 7f3f
000000e0: 88c7 7f3f 220b 803f 7994 7f3f c813 803f
000000f0: 0d01 803f 7729 803f a5f7 7f3f b988 7f3f

bn1.bias f4 [64]
0.0013665245 -0.00042092384 -0.0013740584 0.00043871705 0.0007645415 -2.7743188e-05 0.00040681794 -0.00031537088
0.00012770396 -0.0014708089 -0.00030530023 -0.00035527413 4.2960753e-05 -0.00047878196 -0.0005875305 0.000885979
0.001145707 0.00021926024 -0.0009954786 0.0010563078 0.0009920005 -0.0012940563 -5.588652e-05 -0.00042657473
-0.00021646575 0.0018192104 0.00061334955 0.00064106827 -0.0003360764 0.00091546966 0.0006092812 0.0009847264
-0.0017637307 -0.00047177455 8.023828e-06 -0.00036908226 0.00045898787 -0.00066364626 -0.0014719283 0.0013034639
0.00054763537 2.7846105e-05 -0.0012366348 -0.00012249332 0.00035707047 -0.000377813 -0.001265066 8.753583e-05
-0.0012972067 -0.00035902977 -0.0014532126 -7.300326e-05 0.0007469078 -0.00010035802 -0.0012835687 -0.0003453574
-0.00066289393 0.0002795456 -0.0011782062 0.00049916736 2.5553765e-05 0.0009522096 -9.95319e-05 -0.001307497
00000000: f41c b33a 71af dcb9 c019 b4ba 9b03 e639
00000010: 836b 483a 0bba e8b7 2e4a d539 5d58 a5b9
00000020: 45e8 0539 28c8 c0ba b410 a0b9 1644 bab9
00000030: c230 3438 0705 fbb9 8104 1aba 0b41 683a
00000040: 8c2b 963a 39e9 6539 b87a 82ba cf73 8a3a
00000050: 0306 823a 539d a9ba b267 6ab8 e4a5 dfb9
00000060: 15fb 62b9 9272 ee3a 31c9 203a 5d0d 283a
00000070: 6933 b0b9 21fc 6f3a 2bb8 1f3a ef11 813a
00000080: fb2c e7ba 8258 f7b9 149e 0637 6281 c1b9
00000090: 4fa4 f039 8cf8 2dba b8ed c0ba fed8 aa3a
000000a0: 308f 0f3a 0e97 e937 9416 a2ba 8d71 00b9
000000b0: 3035 bb39 3415 c6b9 92d0 a5ba 7193 b738
000000c0: 0907 aaba 293c bcb9 b979 beba 5419 99b8
000000d0: 22cc 433a 4d77 d2b8 6b3d a8ba 1611 b5b9
000000e0: 0fc6 2dba fa8f 9239 0a6e 9aba 8eda 023a
000000f0: 4b5c d637 b49d 793a c8bb d0b8 5260 abba

bn1.running_mean f4 [64]
0.025462214 0.89819056 0.6158704 -0.027632762 0.13190201 -0.041078016 0.6083737 -0.49701762
-0.5756096 -0.12740174 -0.573863 0.34004092 1.3728889 0.33580622 -0.20913215 0.18958656
0.4045678 -0.5592854 -0.098365225 -0.21475394 -0.009593428 -0.13635777 -0.3749886 -0.14194717
0.4749925 0.08817476 -0.6678487 -0.50702375 0.15780586 -0.37463623 -0.23640649 0.3561969
-0.22094902 0.018884394 0.70847416 -0.074473575 -0.77698445 -0.4477456 -0.49269795 -0.99085915
0.028634094 0.47563246 -0.1405333 -0.02847874 -1.2203498 0.24616182 0.42877632 -0.5349966
-0.7259493 -1.0648307 0.34604484 -0.0010320318 -0.0145551525 -0.81618714 0.9532555 0.5247947
-0.019805431 -0.7208922 -0.00025919173 -0.53567237 -0.09749877 0.4061696 -0.4645055 0.52373654
00000000: 2296 d03c d1ef 653f afa9 1d3f 1a5e e2bc
00000010: 5211 073e 6c41 28bd 61be 1b3f 1879 febe
00000020: 275b 13bf 9a75 02be b0e8 12bf d819 ae3e
00000030: d3ba af3f cbee ab3e bd26 56be fb22 423e
00000040: 8323 cf3e 542d 0fbf b573 c9bd 75e8 5bbe
00000050: c12d 1dbc 5fa1 0bbe 81fe bfbe 995a 11be
00000060: 3832 f33e f894 b43d 22f8 2abf 4fcc 01bf
00000070: dc97 213e 52d0 bfbe 8b14 72be 715f b63e
00000080: 7640 62be 72b3 9a3c 905e 353f 9a85 98bd
00000090: 74e8 46bf e93e e5be e842 fcbe f2a8 7dbf
000000a0: 0c92 ea3c 1986 f33e f6e7 0fbe 3f4c e9bc
000000b0: 6c34 9cbf d811 7c3e 9288 db3e 8af5 08bf
000000c0: d0d7 39bf 5f4c 88bf ca2c b13e 3e45 87ba
000000d0: bc78 6ebc a4f1 50bf 8d08 743f f258 063f
000000e0: 003f a2bc 648c 38bf 20e4 87b9 d321 09bf
000000f0: 6fad c7bd 76f5 cf3e aad3 edbe 9913 063f

bn1.running_var f4 [64]
0.047357365 0.08548854 0.07169386 0.056012105 0.042274702 0.07247488 0.08151029 0.08451502
0.059446976 0.062074423 0.058739077 0.07319272 0.08357137 0.04228028 0.045550697 0.059958953
0.046787173 0.06569991 0.068596825 0.05730481 0.0415222 0.060376424 0.048119597 0.066441424
0.06374179 0.042664498 0.0544736 0.05950503 0.049726874 0.039559614 0.06025522 0.04948747
0.06157998 0.065906204 0.077084266 0.056304812 0.04727922 0.065921426 0.05947558 0.04953355
0.072067685 0.045626745 0.050408278 0.044469893 0.09182194 0.06715276 0.05010678 0.059639394
0.08046581 0.067255825 0.054527514 0.054698393 0.04685492 0.07737103 0.07501186 0.074401654
0.0779352 0.07293553 0.048442483 0.07357524 0.05511283 0.08156218 0.049408764 0.0489133
00000000: ccf9 413d 9e14 af3d 3bd4 923d f36c 653d
00000010: 3d28 2d3d b66d 943d deee a63d 3616 ad3d
00000020: ac7e 733d c041 7e3d 6398 703d 11e6 953d
00000030: 7727 ab3d 162e 2d3d 5e93 3a3d 8597 753d
00000040: e8a3 3f3d ad8d 863d 7e7c 8c3d 73b8 6a3d
00000050: 2f13 2a3d 454d 773d 0e19 453d 7112 883d
00000060: 0e8b 823d f8c0 2e3d b61f 5f3d 8cbb 733d
00000070: 68ae 4b3d 4309 223d 2dce 763d 60b3 4a3d
00000080: 4a3b 7c3d d5f9 863d 5bde 9d3d e09f 663d
00000090: dba7 413d d001 873d aa9c 733d b1e3 4a3d
000000a0: 3998 933d 1ce3 3a3d e978 4e3d 1026 363d
000000b0: 240d bc3d 6387 893d c43c 4d3d 7048 743d
000000c0: 42cb a43d 6cbd 893d 3e58 5f3d 6c0b 603d
000000d0: f2ea 3f3d b474 9e3d d19f 993d e55f 983d
000000e0: 7d9c 9f3d 395f 953d a06b 463d 9eae 963d
000000f0: febd 613d 120a a73d d860 4a3d 5059 483d

fc2.w_mu f4 [1, 64]
-0.16213356 0.046403028 0.14939933 -0.05534055 -0.09406756 -0.0020260783 -0.05603562 0.03050876
-0.022445282 0.16436191 0.029230667 0.03499895 -0.010291797 0.048640195 0.058373533 -0.10573118
-0.13534361 -0.031923972 0.1051459 -0.12705477 -0.11818795 0.14469372 0.00058638706 0.040527888
0.019034868 -0.21582192 -0.07571735 -0.078506425 0.031089613 -0.10892647 -0.07783051 -0.119508974
0.20287444 0.04675958 -0.0075290166 0.0359734 -0.05775029 0.06881959 0.15842618 -0.15053304
-0.06816481 -0.010329963 0.13567129 0.0066313497 -0.045979444 0.034593534 0.13267483 -0.016541624
0.14075449 0.03602654 0.15743239 0.00016862935 -0.09217589 0.005777119 0.14709324 0.033856537
0.06823282 -0.0382506 0.123784885 -0.062561266 -0.008882393 -0.12001083 0.0035664751 0.14748445
00000000: 5706 26be 1a11 3e3d 23fc 183e c6ac 62bd
00000010: 7ea6 c0bd f4c7 04bb 9b85 65bd 82ed f93c
00000020: 2bdf b7bc 7d4e 283e 2775 ef3c 0f5b 0f3d
00000030: ed9e 28bc f13a 473d 1619 6f3d 9789 d8bd
00000040: 8497 0abe b6c2 02bd bc56 d73d a51a 02be
00000050: 860c f2bd 972a 143e c5b7 193a 9200 263d
00000060: 03ef 9b3c 6c00 5dbe b311 9bbd fac7 a0bd
00000070: a5af fe3c d714 dfbd 9a65 9fbd 1fc1 f4bd
00000080: 51be 4f3e f986 3f3d f8b5 f6bb d858 133d
00000090: 918b 6cbd 49f1 8c3d 793a 223e 5525 1abe
000000a0: fe99 8bbd 013f 29bc 6aed 0a3e cb4b d93b
000000b0: f154 3cbd f3b1 0d3d e9db 073e 4d82 87bc
000000c0: f221 103e 9190 133d f535 213e 19d2 3039
000000d0: b7c6 bcbd fd4d bd3b 9c9f 163e 27ad 0a3d
000000e0: a6bd 8b3d a9ac 1cbd ee82 fd3d 1f20 80bd
000000f0: 7587 11bc 3dc8 f5bd 86bb 693b 2a06 173e

fc2.w_rho f4 [1, 64]
-5.0948586 -4.845942 -5.0970745 -5.0126863 -5.0306096 -5.0524173 -5.2348824 -5.0546107
-5.0169024 -4.9639173 -5.067942 -4.9506702 -4.9795074 -5.1129303 -4.9609313 -5.0789456
-5.170877 -5.028336 -4.98167 -4.8842816 -4.952411 -4.806818 -5.0537195 -5.049886
-4.7974005 -4.9920025 -5.167957 -5.092267 -4.9883914 -4.912129 -4.8018346 -4.8527093
-4.8834496 -4.9626617 -4.9542637 -5.1290245 -5.051402 -5.1996746 -5.021446 -4.928572
-5.113409 -5.0906935 -5.049738 -4.944433 -4.9743457 -4.965081 -5.11601 -4.995102
-4.975877 -5.2862782 -5.071845 -4.822593 -5.022373 -5.137513 -4.9331646 -5.0387225
-5.1419654 -4.9815574 -4.970321 -4.9963584 -5.0554137 -4.9440246 -5.045125 -4.9747267
00000000: 1509 a3c0 f511 9bc0 3c1b a3c0 ed67 a0c0
00000010: c1fa a0c0 67ad a1c0 2884 a7c0 5fbf a1c0
00000020: 778a a0c0 69d8 9ec0 952c a2c0 e46b 9ec0
00000030: 2058 9fc0 209d a3c0 f3bf 9ec0 b986 a2c0
00000040: d377 a5c0 21e8 a0c0 d769 9fc0 094c 9cc0
00000050: 277a 9ec0 74d1 99c0 12b8 a1c0 ab98 a1c0
00000060: 4e84 99c0 7cbe 9fc0 e75f a5c0 daf3 a2c0
00000070: e7a0 9fc0 2930 9dc0 a1a8 99c0 6549 9bc0
00000080: 3845 9cc0 20ce 9ec0 5489 9ec0 f820 a4c0
00000090: 16a5 a1c0 bc63 a6c0 b0af a0c0 ddb6 9dc0
000000a0: 0ca1 a3c0 f6e6 a2c0 7497 a1c0 cc38 9ec0
000000b0: d72d 9fc0 f2e1 9ec0 5bb6 a3c0 e0d7 9fc0
000000c0: 623a 9fc0 3129 a9c0 8e4c a2c0 af52 9ac0
000000d0: 48b7 a0c0 8266 a4c0 7cdc 9dc0 373d a1c0
000000e0: fb8a a4c0 eb68 9fc0 df0c 9fc0 2be2 9fc0
000000f0: f3c5 a1c0 7335 9ec0 aa71 a1c0 f630 9fc0
